app/src/main/assets/noiseModel/float_model_08.tflite (tflite, 682816 bytes, 68 tensors)

model/conv1d_15/conv1d i1 [72, 1, 9, 72]
-3 -64 -44 43 -21 -16 17 -46
63 -15 -27 -55 5 -60 -25 -18
-85 -27 35 39 -16 -37 -30 2
-24 24 -30 -7 74 2 65 -19
-10 60 -30 -78 50 16 27 41
36 30 59 -46 -12 -14 -10 4
-76 3 -35 -19 -29 -25 -46 34
16 -59 -73 -67 -16 51 76 -24
-1 -6 64 -4 -51 -14 4 -19
89 -47 -50 64 -19 4 24 -15
64 -41 -15 -51 25 -36 -16 -51
-70 -40 56 82 -63 -65 -50 5
-76 38 -65 -54 22 30 -30 -8
-22 42 -57 -25 -38 52 16 -76
-4 32 20 -24 -46 4 -62 -45
-66 -50 23 58 -15 -35 -52 5
-51 -8 -34 -46 -7 48 31 0
-42 8 36 -40 -41 -22 -42 -108
-50 -80 -56 37 -16 12 74 -19
51 -8 -23 -67 -17 -10 -45 1
-17 -12 76 47 -47 -58 -20 30
-1 39 -72 -51 44 -23 41 -11
-24 64 -57 -22 38 82 15 26
2 48 57 -52 -40 34 -47 -22
-29 -60 -4 2 -70 -19 -35 27
50 -27 -77 -16 -40 63 -20 0
-27 -11 36 -2 -42 2 82 -81
0 -5 -49 76 42 -8 50 -57
47 -33 -19 -22 -49 -19 0 1
-35 -10 43 52 -7 -67 -74 -16
-6 60 -7 -17 -44 74 6 28
-8 62 -2 -54 8 15 -68 -20
00000000: fdc0 d42b ebf0 11d2 3ff1 e5c9 05c4 e7ee
00000010: abe5 2327 f0db e202 e818 e2f9 4a02 41ed
00000020: f63c e2b2 3210 1b29 241e 3bd2 f4f2 f604
00000030: b403 dded e3e7 d222 10c5 b7bd f033 4ce8
00000040: fffa 40fc cdf2 04ed 59d1 ce40 ed04 18f1
00000050: 40d7 f1cd 19dc f0cd bad8 3852 c1bf ce05
00000060: b426 bfca 161e e2f8 ea2a c7e7 da34 10b4
00000070: fc20 14e8 d204 c2d3 bece 173a f1dd cc05
00000080: cdf8 ded2 f930 1f00 d608 24d8 d7ea d694
00000090: ceb0 c825 f00c 4aed 33f8 e9bd eff6 d301
000000a0: eff4 4c2f d1c6 ec1e ff27 b8cd 2ce9 29f5
000000b0: e840 c7ea 2652 0f1a 0230 39cc d822 d1ea
000000c0: e3c4 fc02 baed dd1b 32e5 b3f0 d83f ec00
000000d0: e5f5 24fe d602 52af 00fb cf4c 2af8 32c7
000000e0: 2fdf edea cfed 0001 ddf6 2b34 f9bd b6f0
000000f0: fa3c f9ef d44a 061c f83e feca 080f bcec

model/conv1d_14/conv1d i1 [72, 1, 9, 72]
74 -1 -33 76 72 -44 -55 12
-18 70 -9 58 -44 -27 17 29
34 -60 105 85 26 -7 -49 29
-15 25 74 -5 -41 24 -3 47
51 90 63 -8 1 33 29 80
78 41 53 6 -42 19 67 -22
67 -3 57 -14 41 29 51 68
-16 101 -63 36 3 12 21 20
15 45 43 -19 58 3 -10 -8
96 25 43 44 21 7 -46 68
45 37 27 7 -47 -37 57 26
4 -75 4 64 33 43 -24 21
-3 21 39 -62 110 -22 49 56
46 5 7 -1 40 81 115 67
-19 81 47 -60 -80 30 11 13
34 60 -12 -20 58 5 96 40
54 83 -30 40 -7 46 -13 12
31 93 59 28 69 -80 54 66
31 14 6 -61 83 101 31 39
19 28 46 -18 -20 -38 9 -43
-45 -16 3 -23 12 -50 -45 44
1 -22 12 47 76 24 -30 51
1 53 45 -48 -16 84 33 -29
-55 92 1 21 -14 29 -31 -18
56 21 -10 27 -17 -31 9 53
43 18 -35 106 38 24 11 3
-89 19 -15 16 21 -63 45 25
-42 -5 -66 56 51 46 -30 23
60 -13 36 1 -59 -38 33 -12
-3 -39 30 48 35 26 1 40
-92 -20 64 26 101 34 -70 -23
-52 88 59 -15 -14 16 127 54
00000000: 4aff df4c 48d4 c90c ee46 f73a d4e5 111d
00000010: 22c4 6955 1af9 cf1d f119 4afb d718 fd2f
00000020: 335a 3ff8 0121 1d50 4e29 3506 d613 43ea
00000030: 43fd 39f2 291d 3344 f065 c124 030c 1514
00000040: 0f2d 2bed 3a03 f6f8 6019 2b2c 1507 d244
00000050: 2d25 1b07 d1db 391a 04b5 0440 212b e815
00000060: fd15 27c2 6eea 3138 2e05 07ff 2851 7343
00000070: ed51 2fc4 b01e 0b0d 223c f4ec 3a05 6028
00000080: 3653 e228 f92e f30c 1f5d 3b1c 45b0 3642
00000090: 1f0e 06c3 5365 1f27 131c 2eee ecda 09d5
000000a0: d3f0 03e9 0cce d32c 01ea 0c2f 4c18 e233
000000b0: 0135 2dd0 f054 21e3 c95c 0115 f21d e1ee
000000c0: 3815 f61b efe1 0935 2b12 dd6a 2618 0b03
000000d0: a713 f110 15c1 2d19 d6fb be38 332e e217
000000e0: 3cf3 2401 c5da 21f4 fdd9 1e30 231a 0128
000000f0: a4ec 401a 6522 bae9 cc58 3bf1 f210 7f36

model/conv1d_13/conv1d i1 [72, 1, 1, 48]
49 -58 -52 -78 72 22 33 40
-23 55 -81 12 -104 -36 12 46
-54 -13 19 56 111 -47 -12 -108
-38 28 -7 23 -51 35 27 55
-23 16 46 25 -66 8 -89 -15
59 36 -1 44 -15 -47 -127 3
34 39 -73 -33 52 32 23 43
-25 127 -49 -29 -50 -61 11 -10
-28 -13 -19 -111 26 -36 20 59
-26 -61 2 12 -25 -45 66 -7
55 7 -1 63 -6 -35 49 -46
53 -30 12 -16 2 -28 10 7
25 38 -17 -2 127 42 59 39
33 -28 -6 33 23 -16 -22 62
61 -45 -8 9 -8 2 38 37
-15 38 78 -7 -7 -14 -44 36
10 30 73 53 -11 -41 0 37
14 7 -12 39 50 17 22 35
-22 -17 -82 13 -68 -73 30 -78
39 49 26 -26 -94 118 113 108
23 34 -10 51 53 -50 -13 -55
44 -31 -18 -21 -20 87 -33 -54
43 -41 -1 -43 65 -52 -127 99
-98 98 88 106 -76 -10 62 37
13 18 46 24 -44 33 -51 -46
-55 -70 9 -33 -26 -71 11 14
-43 -53 79 24 38 4 -90 -56
36 54 -54 7 -31 -7 13 -17
-51 60 30 -28 27 -61 -73 41
58 -31 -48 -25 -26 -36 -127 -31
54 33 -67 -63 79 39 67 106
17 46 2 -44 6 -69 38 60
00000000: 31c6 ccb2 4816 2128 e937 af0c 98dc 0c2e
00000010: caf3 1338 6fd1 f494 da1c f917 cd23 1b37
00000020: e910 2e19 be08 a7f1 3b24 ff2c f1d1 8103
00000030: 2227 b7df 3420 172b e77f cfe3 cec3 0bf6
00000040: e4f3 ed91 1adc 143b e6c3 020c e7d3 42f9
00000050: 3707 ff3f fadd 31d2 35e2 0cf0 02e4 0a07
00000060: 1926 effe 7f2a 3b27 21e4 fa21 17f0 ea3e
00000070: 3dd3 f809 f802 2625 f126 4ef9 f9f2 d424
00000080: 0a1e 4935 f5d7 0025 0e07 f427 3211 1623
00000090: eaef ae0d bcb7 1eb2 2731 1ae6 a276 716c
000000a0: 1722 f633 35ce f3c9 2ce1 eeeb ec57 dfca
000000b0: 2bd7 ffd5 41cc 8163 9e62 586a b4f6 3e25
000000c0: 0d12 2e18 d421 cdd2 c9ba 09df e6b9 0b0e
000000d0: d5cb 4f18 2604 a6c8 2436 ca07 e1f9 0def
000000e0: cd3c 1ee4 1bc3 b729 3ae1 d0e7 e6dc 81e1
000000f0: 3621 bdc1 4f27 436a 112e 02d4 06bb 263c

model/conv1d_12/conv1d i1 [72, 1, 9, 72]
1 -50 -2 -69 -8 -22 -36 -53
-54 -32 -20 -61 -20 0 -33 -42
-57 -8 -19 -9 -27 -52 -38 -8
53 -47 -9 -38 -54 60 -39 -34
-28 -45 -31 13 -44 -7 -57 43
-49 -39 -3 -15 -23 22 -10 -72
1 -52 1 -31 -56 7 9 -22
19 -37 -32 -58 -36 -3 6 -38
-12 -1 10 -14 -15 43 3 -39
-24 -37 -46 -18 -1 -9 -30 -34
-2 -12 -45 -16 0 -1 -34 -52
3 -28 -1 13 0 15 -30 -44
22 24 -30 -45 -28 6 -60 -12
-23 -27 -10 46 -46 -32 -30 31
-22 -49 5 -27 -16 -48 -4 -27
48 -9 -44 -50 -37 -6 -33 -16
14 -60 -52 -27 3 -51 8 -25
-30 -11 -57 -10 -44 5 -21 -43
25 -10 -52 -95 23 -12 -49 -6
-44 -23 -17 -38 -93 -55 -57 -27
-25 -54 -47 -54 -15 44 -10 -42
17 -13 -8 -21 -36 46 -50 19
-18 -32 -37 51 25 -21 -14 9
-27 -63 13 -30 -24 -30 -63 -3
34 -16 -27 -6 -63 -21 -23 -19
3 -27 -36 27 -23 -35 -10 -30
-9 6 -50 -58 -31 21 -57 -21
0 -47 -37 -40 -51 0 3 -46
-16 -10 -38 -42 -47 -22 -43 -50
-21 22 6 -2 -14 -56 -45 24
22 20 8 -53 39 13 -1 -45
-13 -39 -8 -21 53 -29 -17 -16
00000000: 01ce febb f8ea dccb cae0 ecc3 ec00 dfd6
00000010: c7f8 edf7 e5cc daf8 35d1 f7da ca3c d9de
00000020: e4d3 e10d d4f9 c72b cfd9 fdf1 e916 f6b8
00000030: 01cc 01e1 c807 09ea 13db e0c6 dcfd 06da
00000040: f4ff 0af2 f12b 03d9 e8db d2ee fff7 e2de
00000050: fef4 d3f0 00ff decc 03e4 ff0d 000f e2d4
00000060: 1618 e2d3 e406 c4f4 e9e5 f62e d2e0 e21f
00000070: eacf 05e5 f0d0 fce5 30f7 d4ce dbfa dff0
00000080: 0ec4 cce5 03cd 08e7 e2f5 c7f6 d405 ebd5
00000090: 19f6 cca1 17f4 cffa d4e9 efda a3c9 c7e5
000000a0: e7ca d1ca f12c f6d6 11f3 f8eb dc2e ce13
000000b0: eee0 db33 19eb f209 e5c1 0de2 e8e2 c1fd
000000c0: 22f0 e5fa c1eb e9ed 03e5 dc1b e9dd f6e2
000000d0: f706 cec6 e115 c7eb 00d1 dbd8 cd00 03d2
000000e0: f0f6 dad6 d1ea d5ce eb16 06fe f2c8 d318
000000f0: 1614 08cb 270d ffd3 f3d9 f8eb 35e3 eff0

model/conv1d_11/conv1d f4 [72]
0.0 0.0 0.0 0.0 0.0 0.0 0.0 0.0
0.0 0.0 0.0 0.0 0.0 0.0 0.0 0.0
0.0 0.0 0.0 0.0 0.0 0.0 0.0 0.0
0.0 0.0 0.0 0.0 0.0 0.0 0.0 0.0
0.0 0.0 0.0 0.0 0.0 0.0 0.0 0.0
0.0 0.0 0.0 0.0 0.0 0.0 0.0 0.0
0.0 0.0 0.0 0.0 0.0 0.0 0.0 0.0
0.0 0.0 0.0 0.0 0.0 0.0 0.0 0.0
0.0 0.0 0.0 0.0 0.0 0.0 0.0 0.0
00000000: 0000 0000 0000 0000 0000 0000 0000 0000
00000010: 0000 0000 0000 0000 0000 0000 0000 0000
00000020: 0000 0000 0000 0000 0000 0000 0000 0000
00000030: 0000 0000 0000 0000 0000 0000 0000 0000
00000040: 0000 0000 0000 0000 0000 0000 0000 0000
00000050: 0000 0000 0000 0000 0000 0000 0000 0000
00000060: 0000 0000 0000 0000 0000 0000 0000 0000
00000070: 0000 0000 0000 0000 0000 0000 0000 0000
00000080: 0000 0000 0000 0000 0000 0000 0000 0000
00000090: 0000 0000 0000 0000 0000 0000 0000 0000
000000a0: 0000 0000 0000 0000 0000 0000 0000 0000
000000b0: 0000 0000 0000 0000 0000 0000 0000 0000
000000c0: 0000 0000 0000 0000 0000 0000 0000 0000
000000d0: 0000 0000 0000 0000 0000 0000 0000 0000
000000e0: 0000 0000 0000 0000 0000 0000 0000 0000
000000f0: 0000 0000 0000 0000 0000 0000 0000 0000
00000100: 0000 0000 0000 0000 0000 0000 0000 0000
00000110: 0000 0000 0000 0000 0000 0000 0000 0000

model/conv1d_11/conv1d1 i1 [72, 1, 9, 48]
61 24 20 -4 -10 9 56 -2
-58 -85 -1 -17 43 -15 63 45
-11 -13 -8 -98 -21 -13 15 82
-84 49 -57 -93 -15 15 25 8
49 18 -8 -25 -13 102 39 36
31 100 30 -4 47 -33 -57 33
9 59 22 24 -19 91 -88 -36
0 55 -9 -28 7 98 -86 58
11 77 95 -14 -1 55 24 -84
-50 19 -15 -85 -85 22 29 57
-12 22 44 83 0 99 47 68
51 62 98 109 41 8 -18 -5
37 50 24 -55 -3 100 25 92
79 -29 97 11 77 -46 15 30
-15 59 66 46 88 -20 63 0
-25 68 5 -78 -58 124 -17 56
69 52 -38 82 -4 -1 30 89
-1 13 117 -91 3 35 -101 27
77 20 67 -12 73 24 48 83
91 19 -44 5 -85 -78 -102 -6
75 -18 88 101 7 -41 -92 9
-44 25 64 -12 -56 72 41 11
90 15 34 33 -100 78 86 123
56 46 77 45 92 63 -23 64
96 -102 115 -91 17 -4 71 28
28 -73 -2 3 -21 -9 -26 97
16 -75 -6 79 1 -20 -37 6
56 59 107 -97 -109 59 -19 31
34 69 19 100 0 -5 -13 110
5 84 36 79 76 52 -79 -6
57 26 87 -111 78 77 15 52
68 45 44 18 -26 -51 53 57
00000000: 3d18 14fc f609 38fe c6ab ffef 2bf1 3f2d
00000010: f5f3 f89e ebf3 0f52 ac31 c7a3 f10f 1908
00000020: 3112 f8e7 f366 2724 1f64 1efc 2fdf c721
00000030: 093b 1618 ed5b a8dc 0037 f7e4 0762 aa3a
00000040: 0b4d 5ff2 ff37 18ac ce13 f1ab ab16 1d39
00000050: f416 2c53 0063 2f44 333e 626d 2908 eefb
00000060: 2532 18c9 fd64 195c 4fe3 610b 4dd2 0f1e
00000070: f13b 422e 58ec 3f00 e744 05b2 c67c ef38
00000080: 4534 da52 fcff 1e59 ff0d 75a5 0323 9b1b
00000090: 4d14 43f4 4918 3053 5b13 d405 abb2 9afa
000000a0: 4bee 5865 07d7 a409 d419 40f4 c848 290b
000000b0: 5a0f 2221 9c4e 567b 382e 4d2d 5c3f e940
000000c0: 609a 73a5 11fc 471c 1cb7 fe03 ebf7 e661
000000d0: 10b5 fa4f 01ec db06 383b 6b9f 933b ed1f
000000e0: 2245 1364 00fb f36e 0554 244f 4c34 b1fa
000000f0: 391a 5791 4e4d 0f34 442d 2c12 e6cd 3539

model/conv1d_10/conv1d i1 [48, 1, 9, 48]
-9 16 32 -49 45 -13 -35 7
11 -5 -10 5 -4 -41 23 3
-44 -17 -26 -21 46 1 -24 44
-53 0 1 -17 38 -78 4 -31
-8 -29 2 -52 -93 56 30 -20
-40 -23 -40 -55 8 -47 -4 -11
36 8 53 -49 21 -9 -22 27
-37 -42 -58 -48 -3 -39 73 52
-18 -15 -15 -33 42 -22 11 59
-43 7 -41 -47 12 5 -6 -37
53 2 -31 -26 -33 63 44 38
-19 -13 -46 -40 -7 -45 -10 -56
5 2 61 -38 7 9 -28 19
-23 -32 -25 -44 7 5 28 33
-22 -67 -28 4 8 24 -24 12
-67 28 -60 -53 36 -27 -65 -52
42 3 21 82 -42 64 -5 -24
5 53 20 -6 -26 -80 37 -54
14 35 25 17 44 15 31 50
33 -10 17 4 18 -26 31 40
21 -43 -10 12 -12 -24 -45 15
-10 75 -28 0 37 11 -1 -13
8 -50 -48 32 -2 7 46 29
-7 43 5 -46 48 -5 19 -61
-1 0 34 2 17 53 59 56
-10 -44 -18 -63 -7 -1 49 20
-70 -40 -48 -51 9 -9 -69 68
-46 6 -28 -42 58 -12 1 -28
51 -10 6 -15 -57 23 63 18
-34 15 7 -14 20 -43 -4 -6
18 -15 47 26 43 56 60 22
10 27 29 0 -6 2 17 -11
00000000: f710 20cf 2df3 dd07 0bfb f605 fcd7 1703
00000010: d4ef e6eb 2e01 e82c cb00 01ef 26b2 04e1
00000020: f8e3 02cc a338 1eec d8e9 d8c9 08d1 fcf5
00000030: 2408 35cf 15f7 ea1b dbd6 c6d0 fdd9 4934
00000040: eef1 f1df 2aea 0b3b d507 d7d1 0c05 fadb
00000050: 3502 e1e6 df3f 2c26 edf3 d2d8 f9d3 f6c8
00000060: 0502 3dda 0709 e413 e9e0 e7d4 0705 1c21
00000070: eabd e404 0818 e80c bd1c c4cb 24e5 bfcc
00000080: 2a03 1552 d640 fbe8 0535 14fa e6b0 25ca
00000090: 0e23 1911 2c0f 1f32 21f6 1104 12e6 1f28
000000a0: 15d5 f60c f4e8 d30f f64b e400 250b fff3
000000b0: 08ce d020 fe07 2e1d f92b 05d2 30fb 13c3
000000c0: ff00 2202 1135 3b38 f6d4 eec1 f9ff 3114
000000d0: bad8 d0cd 09f7 bb44 d206 e4d6 3af4 01e4
000000e0: 33f6 06f1 c717 3f12 de0f 07f2 14d5 fcfa
000000f0: 12f1 2f1a 2b38 3c16 0a1b 1d00 fa02 11f5

model/conv1d_9/conv1d i1 [48, 1, 9, 48]
-5 -59 3 7 -32 40 -7 -31
-19 30 -64 10 -21 9 13 2
-57 -3 -21 -16 2 58 60 19
19 -11 -73 -51 -18 -67 -53 -17
-75 2 15 48 17 -60 -20 -30
-4 -23 -62 -38 -41 -84 -21 15
-7 -78 56 -27 9 21 0 -76
-17 46 -74 35 -5 26 -29 -33
20 17 -5 43 -46 57 -11 33
-32 -51 -1 -15 -19 23 0 1
45 -23 18 26 49 -7 -77 -47
31 -67 48 -4 25 -45 -8 -43
-46 -65 -3 -16 22 -75 -53 -12
-59 -38 -44 0 5 35 -40 -35
-23 -10 60 -26 -43 -29 -45 41
88 -39 -41 -78 64 6 -90 40
-16 -45 39 -3 -10 -56 -24 -74
-6 -60 44 -3 40 28 -2 58
27 12 7 -17 31 58 -24 50
4 60 -77 34 -8 21 -15 10
-11 22 4 14 -23 -20 64 52
80 45 15 -73 33 59 45 24
62 7 58 39 0 -19 -29 29
-54 -54 37 8 0 44 -81 46
82 -58 45 -1 55 21 11 -70
42 -40 -25 6 -23 57 -59 -44
-29 6 -28 54 -59 32 87 24
84 42 34 -105 75 24 -30 12
16 -4 60 6 36 -49 -11 41
-50 50 81 23 -44 -38 -37 20
53 2 28 -21 39 11 61 -23
-5 5 -90 64 -75 33 22 -48
00000000: fbc5 0307 e028 f9e1 ed1e c00a eb09 0d02
00000010: c7fd ebf0 023a 3c13 13f5 b7cd eebd cbef
00000020: b502 0f30 11c4 ece2 fce9 c2da d7ac eb0f
00000030: f9b2 38e5 0915 00b4 ef2e b623 fb1a e3df
00000040: 1411 fb2b d239 f521 e0cd fff1 ed17 0001
00000050: 2de9 121a 31f9 b3d1 1fbd 30fc 19d3 f8d5
00000060: d2bf fdf0 16b5 cbf4 c5da d400 0523 d8dd
00000070: e9f6 3ce6 d5e3 d329 58d9 d7b2 4006 a628
00000080: f0d3 27fd f6c8 e8b6 fac4 2cfd 281c fe3a
00000090: 1b0c 07ef 1f3a e832 043c b322 f815 f10a
000000a0: f516 040e e9ec 4034 502d 0fb7 213b 2d18
000000b0: 3e07 3a27 00ed e31d caca 2508 002c af2e
000000c0: 52c6 2dff 3715 0bba 2ad8 e706 e939 c5d4
000000d0: e306 e436 c520 5718 542a 2297 4b18 e20c
000000e0: 10fc 3c06 24cf f529 ce32 5117 d4da db14
000000f0: 3502 1ceb 270b 3de9 fb05 a640 b521 16d0

model/conv1d_8/conv1d i1 [48, 1, 1, 36]
-45 48 97 36 13 31 -11 40
127 52 -26 60 69 -10 39 -22
34 21 -62 -39 21 17 22 -58
-100 32 26 -62 -25 42 -15 -12
62 -111 43 49 80 58 90 69
-1 14 -44 127 -60 -14 -37 -26
112 14 -58 -67 -4 59 47 -18
-45 19 30 10 -14 -61 -38 105
34 -39 36 48 46 -60 -48 -39
72 -15 70 72 -63 74 -103 0
28 -86 1 8 57 -30 47 48
6 -34 -39 109 29 44 104 125
-32 -92 42 31 -1 79 -9 127
1 -8 -66 29 -23 -10 22 20
-83 -55 -52 -39 -69 -21 24 -127
-50 -1 92 -56 5 -83 91 -108
44 -46 3 -17 -88 -51 -55 -8
-122 10 56 4 -68 -31 -69 -37
-127 61 100 45 -112 5 51 44
90 7 18 -29 -1 -64 23 -41
40 -2 89 -33 34 -27 41 -85
76 -34 95 -69 72 -117 46 -61
79 -32 7 90 43 -60 -10 -1
-21 -6 -127 16 33 63 -30 52
-20 -81 -20 82 -11 -19 -11 4
-27 -23 69 27 -5 -62 59 76
34 78 -100 45 18 111 -93 -39
-11 127 78 64 30 -62 42 86
56 -48 2 -33 83 21 -56 47
27 13 56 4 80 119 107 3
5 -92 43 -42 -5 -95 48 8
73 7 -6 43 90 28 56 -27
00000000: d330 6124 0d1f f528 7f34 e63c 45f6 27ea
00000010: 2215 c2d9 1511 16c6 9c20 1ac2 e72a f1f4
00000020: 3e91 2b31 503a 5a45 ff0e d47f c4f2 dbe6
00000030: 700e c6bd fc3b 2fee d313 1e0a f2c3 da69
00000040: 22d9 2430 2ec4 d0d9 48f1 4648 c14a 9900
00000050: 1caa 0108 39e2 2f30 06de d96d 1d2c 687d
00000060: e0a4 2a1f ff4f f77f 01f8 be1d e9f6 1614
00000070: adc9 ccd9 bbeb 1881 ceff 5cc8 05ad 5b94
00000080: 2cd2 03ef a8cd c9f8 860a 3804 bce1 bbdb
00000090: 813d 642d 9005 332c 5a07 12e3 ffc0 17d7
000000a0: 28fe 59df 22e5 29ab 4cde 5fbb 488b 2ec3
000000b0: 4fe0 075a 2bc4 f6ff ebfa 8110 213f e234
000000c0: ecaf ec52 f5ed f504 e5e9 451b fbc2 3b4c
000000d0: 224e 9c2d 126f a3d9 f57f 4e40 1ec2 2a56
000000e0: 38d0 02df 5315 c82f 1b0d 3804 5077 6b03
000000f0: 05a4 2bd6 fba1 3008 4907 fa2b 5a1c 38e5

model/conv1d_7/conv1d i1 [48, 1, 9, 48]
-3 30 50 57 44 -35 37 -60
-45 31 -70 -15 -52 -4 -25 -11
-49 -84 4 -87 52 38 -57 28
-76 48 -47 -89 -20 68 9 1
27 -17 37 39 28 58 -39 -34
-27 53 34 -13 8 71 -39 -16
2 -7 9 -26 60 -57 6 -22
-34 44 0 37 0 -76 -18 -76
12 -7 3 -26 82 1 -60 -6
-26 14 -39 21 1 1 -52 39
16 -6 31 52 -41 75 -25 -62
-19 17 36 -44 26 17 -52 14
127 20 60 14 47 10 70 -8
-17 53 -39 37 -9 -10 50 -55
48 -76 63 -4 40 13 -51 50
-27 -17 -45 -18 -13 32 -72 11
22 27 41 49 54 61 -55 -44
-23 60 30 -19 19 7 -17 5
27 -72 63 29 -4 -80 33 -56
9 50 -39 39 -24 -42 57 -62
15 -32 -3 -14 73 -4 -32 21
-33 49 -51 -21 -63 7 -9 41
-5 42 55 10 -8 28 -54 -50
40 -4 22 26 22 17 -2 -23
-34 -81 71 -4 0 -22 44 -35
0 41 -43 48 -11 -7 58 -24
58 -82 25 -83 79 -3 -69 31
-4 28 -45 -8 4 42 -80 58
-59 50 23 16 23 7 27 -62
38 39 47 -24 7 48 -62 17
-1 -26 21 31 16 -57 30 -30
-56 49 -9 -1 37 -65 38 -13
00000000: fd1e 3239 2cdd 25c4 d31f baf1 ccfc e7f5
00000010: cfac 04a9 3426 c71c b430 d1a7 ec44 0901
00000020: 1bef 2527 1c3a d9de e535 22f3 0847 d9f0
00000030: 02f9 09e6 3cc7 06ea de2c 0025 00b4 eeb4
00000040: 0cf9 03e6 5201 c4fa e60e d915 0101 cc27
00000050: 10fa 1f34 d74b e7c2 ed11 24d4 1a11 cc0e
00000060: 7f14 3c0e 2f0a 46f8 ef35 d925 f7f6 32c9
00000070: 30b4 3ffc 280d cd32 e5ef d3ee f320 b80b
00000080: 161b 2931 363d c9d4 e93c 1eed 1307 ef05
00000090: 1bb8 3f1d fcb0 21c8 0932 d927 e8d6 39c2
000000a0: 0fe0 fdf2 49fc e015 df31 cdeb c107 f729
000000b0: fb2a 370a f81c cace 28fc 161a 1611 fee9
000000c0: deaf 47fc 00ea 2cdd 0029 d530 f5f9 3ae8
000000d0: 3aae 19ad 4ffd bb1f fc1c d3f8 042a b03a
000000e0: c532 1710 1707 1bc2 2627 2fe8 0730 c211
000000f0: ffe6 151f 10c7 1ee2 c831 f7ff 25bf 26f3

model/conv1d_6/conv1d f4 [48]
0.0 0.0 0.0 0.0 0.0 0.0 0.0 0.0
0.0 0.0 0.0 0.0 0.0 0.0 0.0 0.0
0.0 0.0 0.0 0.0 0.0 0.0 0.0 0.0
0.0 0.0 0.0 0.0 0.0 0.0 0.0 0.0
0.0 0.0 0.0 0.0 0.0 0.0 0.0 0.0
0.0 0.0 0.0 0.0 0.0 0.0 0.0 0.0
00000000: 0000 0000 0000 0000 0000 0000 0000 0000
00000010: 0000 0000 0000 0000 0000 0000 0000 0000
00000020: 0000 0000 0000 0000 0000 0000 0000 0000
00000030: 0000 0000 0000 0000 0000 0000 0000 0000
00000040: 0000 0000 0000 0000 0000 0000 0000 0000
00000050: 0000 0000 0000 0000 0000 0000 0000 0000
00000060: 0000 0000 0000 0000 0000 0000 0000 0000
00000070: 0000 0000 0000 0000 0000 0000 0000 0000
00000080: 0000 0000 0000 0000 0000 0000 0000 0000
00000090: 0000 0000 0000 0000 0000 0000 0000 0000
000000a0: 0000 0000 0000 0000 0000 0000 0000 0000
000000b0: 0000 0000 0000 0000 0000 0000 0000 0000

model/conv1d_6/conv1d1 i1 [48, 1, 9, 36]
22 -40 -25 -72 17 -47 68 -66
-14 -3 69 50 -11 73 -106 49
15 -33 -28 -53 -86 -27 -9 -38
-67 -27 26 49 3 -76 -62 49
-95 0 102 -3 36 -24 -33 -19
71 18 64 -34 -31 -8 -5 26
-44 4 -44 29 -33 -54 45 -19
-46 -97 -55 -40 -77 27 59 23
-10 -103 -112 47 -58 -19 83 30
-21 -35 -37 -63 -22 9 79 -12
-70 1 -8 0 -14 36 -66 17
-6 1 -64 -26 -21 -37 -49 -108
-52 -13 54 62 -67 -48 -111 28
-93 -67 124 -23 -40 -42 -48 -60
-7 -28 73 -18 -51 -35 -19 -1
-8 32 -56 43 23 -76 -2 -107
-57 -46 -41 -24 -81 -34 50 -53
-25 -110 -61 18 -15 -16 52 22
-8 -74 -45 -15 33 -31 56 -55
-15 -56 -3 0 18 71 -92 -27
15 16 52 -49 -4 -58 -52 -97
-88 10 49 1 5 -107 -82 104
-20 -7 116 20 0 -44 -18 -36
33 -16 -11 -71 -53 -25 -11 36
7 40 -106 12 -6 -16 59 -24
-18 -28 -37 -38 -122 39 30 33
-50 -63 -17 0 -84 -38 77 -39
-62 7 -27 -83 54 19 59 -50
-56 -42 34 73 -45 62 -123 -10
14 -2 60 -96 -60 -93 -52 -127
-86 21 49 15 29 -29 -54 15
-81 -19 76 1 37 -75 41 -94
00000000: 16d8 e7b8 11d1 44be f2fd 4532 f549 9631
00000010: 0fdf e4cb aae5 f7da bde5 1a31 03b4 c231
00000020: a100 66fd 24e8 dfed 4712 40de e1f8 fb1a
00000030: d404 d41d dfca 2ded d29f c9d8 b31b 3b17
00000040: f699 902f c6ed 531e ebdd dbc1 ea09 4ff4
00000050: ba01 f800 f224 be11 fa01 c0e6 ebdb cf94
00000060: ccf3 363e bdd0 911c a3bd 7ce9 d8d6 d0c4
00000070: f9e4 49ee cddd edff f820 c82b 17b4 fe95
00000080: c7d2 d7e8 afde 32cb e792 c312 f1f0 3416
00000090: f8b6 d3f1 21e1 38c9 f1c8 fd00 1247 a4e5
000000a0: 0f10 34cf fcc6 cc9f a80a 3101 0595 ae68
000000b0: ecf9 7414 00d4 eedc 21f0 f5b9 cbe7 f524
000000c0: 0728 960c faf0 3be8 eee4 dbda 8627 1e21
000000d0: cec1 ef00 acda 4dd9 c207 e5ad 3613 3bce
000000e0: c8d6 2249 d33e 85f6 0efe 3ca0 c4a3 cc81
000000f0: aa15 310f 1de3 ca0f afed 4c01 25b5 29a2

model/conv1d_5/conv1d i1 [36, 1, 9, 36]
23 29 -4 16 10 -18 26 -41
-33 20 32 11 69 63 -8 25
-5 -39 -1 1 0 13 -10 19
31 -11 24 -5 -28 47 46 -13
-24 -32 1 -41 58 42 -40 48
-34 19 16 0 45 -22 28 8
24 10 -6 13 4 -33 -1 74
-49 -31 18 11 39 127 -43 -11
10 14 65 -50 38 14 -5 -9
59 40 -18 57 6 -24 18 -24
2 -55 43 -6 43 19 -31 51
19 -6 18 88 -5 -48 6 38
70 59 45 35 -8 43 35 -20
64 -11 27 9 48 86 12 -2
7 39 61 -11 24 -4 24 -42
46 58 -24 -18 37 -34 -4 39
15 -48 4 29 75 80 -12 30
-1 -10 33 -51 16 -22 18 79
19 45 -32 -50 -40 6 40 -1
4 -42 10 -29 59 33 -13 -9
20 -10 11 -10 11 4 43 54
25 98 25 34 -30 51 51 -15
-41 6 14 -38 27 50 -30 20
-35 41 41 -30 -30 -25 44 33
22 26 -3 47 -3 -6 -18 82
16 -3 26 30 44 45 -28 6
51 -25 29 -13 19 -7 6 22
14 11 -3 -45 -55 -28 45 -3
-38 -12 40 9 37 -11 -74 -34
12 -30 16 -13 25 -12 35 15
30 74 -1 21 -6 5 9 -2
-11 -29 0 1 30 49 -60 15
00000000: 171d fc10 0aee 1ad7 df14 200b 453f f819
00000010: fbd9 ff01 000d f613 1ff5 18fb e42f 2ef3
00000020: e8e0 01d7 3a2a d830 de13 1000 2dea 1c08
00000030: 180a fa0d 04df ff4a cfe1 120b 277f d5f5
00000040: 0a0e 41ce 260e fbf7 3b28 ee39 06e8 12e8
00000050: 02c9 2bfa 2b13 e133 13fa 1258 fbd0 0626
00000060: 463b 2d23 f82b 23ec 40f5 1b09 3056 0cfe
00000070: 0727 3df5 18fc 18d6 2e3a e8ee 25de fc27
00000080: 0fd0 041d 4b50 f41e fff6 21cd 10ea 124f
00000090: 132d e0ce d806 28ff 04d6 0ae3 3b21 f3f7
000000a0: 14f6 0bf6 0b04 2b36 1962 1922 e233 33f1
000000b0: d706 0eda 1b32 e214 dd29 29e2 e2e7 2c21
000000c0: 161a fd2f fdfa ee52 10fd 1a1e 2c2d e406
000000d0: 33e7 1df3 13f9 0616 0e0b fdd3 c9e4 2dfd
000000e0: daf4 2809 25f5 b6de 0ce2 10f3 19f4 230f
000000f0: 1e4a ff15 fa05 09fe f5e3 0001 1e31 c40f

model/conv1d_4/conv1d i1 [36, 1, 9, 36]
58 40 42 20 60 -8 66 52
-37 19 65 -1 -9 22 -70 42
20 45 15 -24 -11 51 23 57
1 -127 62 -21 42 -8 33 59
97 1 42 68 47 49 74 18
29 -9 27 67 38 14 61 6
55 -3 -53 8 -2 78 60 74
3 64 10 74 -34 -75 90 -60
32 -70 31 -20 -44 -3 35 40
-80 97 70 22 105 -30 -4 19
90 34 88 62 76 -7 -41 76
53 100 -36 -11 64 22 47 55
-104 -104 80 -68 -34 -27 -58 -12
111 10 8 4 10 46 57 -80
35 -106 58 -4 21 51 -8 62
-18 43 -3 -78 -3 71 2 21
-36 6 24 75 13 -51 83 -46
53 29 -74 -19 81 50 98 41
5 4 52 -22 80 -23 -5 -16
12 69 20 51 -33 -100 31 -19
-4 6 -68 -10 -96 9 12 -28
5 -40 1 2 37 -9 -30 10
29 -26 50 81 33 68 48 -64
33 8 -16 66 108 -2 60 32
-77 -3 11 7 23 76 23 37
-9 53 -7 40 -106 -18 16 -67
-30 -68 -13 -22 80 68 11 81
-105 88 65 -19 45 16 -61 -21
42 15 14 -3 8 -23 -42 1
34 14 -82 35 2 54 39 55
-103 -7 14 -34 -30 73 -12 59
74 4 57 85 -2 97 75 -98
00000000: 3a28 2a14 3cf8 4234 db13 41ff f716 ba2a
00000010: 142d 0fe8 f533 1739 0181 3eeb 2af8 213b
00000020: 6101 2a44 2f31 4a12 1df7 1b43 260e 3d06
00000030: 37fd cb08 fe4e 3c4a 0340 0a4a deb5 5ac4
00000040: 20ba 1fec d4fd 2328 b061 4616 69e2 fc13
00000050: 5a22 583e 4cf9 d74c 3564 dcf5 4016 2f37
00000060: 9898 50bc dee5 c6f4 6f0a 0804 0a2e 39b0
00000070: 2396 3afc 1533 f83e ee2b fdb2 fd47 0215
00000080: dc06 184b 0dcd 53d2 351d b6ed 5132 6229
00000090: 0504 34ea 50e9 fbf0 0c45 1433 df9c 1fed
000000a0: fc06 bcf6 a009 0ce4 05d8 0102 25f7 e20a
000000b0: 1de6 3251 2144 30c0 2108 f042 6cfe 3c20
000000c0: b3fd 0b07 174c 1725 f735 f928 96ee 10bd
000000d0: e2bc f3ea 5044 0b51 9758 41ed 2d10 c3eb
000000e0: 2a0f 0efd 08e9 d601 220e ae23 0236 2737
000000f0: 99f9 0ede e249 f43b 4a04 3955 fe61 4b9e

model/conv1d_3/conv1d f4 [36, 1, 1, 24]
0.09979819 -0.08849399 0.17924531 -0.029122472 -0.30062225 0.19451717 -0.07167094 -0.37170961
0.31217608 0.093908936 0.47788665 0.109846875 -0.0318688 0.37469754 0.13995789 0.28142154
0.15900664 0.14768073 0.14826374 0.0089213615 -0.12592699 -0.3157755 0.31341213 -0.18601531
-0.21761616 -0.13885306 0.20859967 -0.14943498 -0.15504543 0.4616284 -0.22833665 0.2153432
-0.22569372 0.20529109 -0.027212141 0.14534555 0.087131426 0.004163277 0.19388539 -0.3657165
0.17655765 -0.047442127 0.091671094 -0.33540738 -0.44561967 0.13401145 -0.24365601 0.13139878
-0.3479668 -0.19420592 0.4249536 0.23998125 0.2636078 0.057981938 -0.16889982 -0.056013815
-0.21821548 0.18746603 -0.33215016 -0.027968302 -0.07990675 -0.085297816 0.14956923 0.17044352
0.0122083565 0.3488754 -0.18348737 0.034994774 -0.059925262 0.11961716 0.24571846 -0.27004373
-0.15754128 -0.006600183 -0.045836736 -0.26434806 -0.38604635 -0.28651884 -0.025526263 -0.46321937
-0.2200739 0.49576542 -0.120543815 -0.41157067 -0.22043565 0.2969036 -0.03944 0.40468466
0.33951446 -0.060353793 -0.21307024 0.31225273 0.31720805 -0.031980686 0.08381634 -0.011165793
0.07144704 0.34566203 0.06054057 0.41625023 -0.2025543 -0.24430624 -0.039882667 0.45771858
0.049600746 0.46693826 0.122976296 -0.03698059 0.3240912 -0.45030728 -0.26163122 -0.19806641
-0.005004256 -0.43245554 0.03881859 0.1483744 -0.16343495 -0.012625047 -0.091526076 0.2274895
-0.27446628 0.24862815 -0.146114 0.3711703 0.25809035 -0.51092976 -0.06752751 -0.30025247
0.3886452 -0.10144118 -0.22730526 0.17888848 0.1256909 0.012378811 0.29271263 0.00513635
-0.19816247 -0.28151822 0.18884623 0.2730383 0.19899605 -0.22661346 -0.094680496 0.16312145
0.04133497 0.02377076 0.2690517 0.2937277 -0.23202685 0.091486804 0.49444163 -0.24401161
0.28947827 -0.31484276 0.16547628 0.22427358 0.14995518 -0.31709698 -0.18114752 0.14787324
0.0061612176 -0.213465 0.51440215 0.5417302 -0.011732377 0.05055371 -0.14701848 -0.18590726
-0.25439695 -0.29941535 0.10929669 0.11379115 0.17556758 0.108781785 0.26455602 0.2324946
-0.19233242 -0.1250243 0.22661765 0.32158643 0.009455178 0.04053475 0.24769108 -0.044795956
-0.18174352 -0.21543978 0.015308456 0.082429 0.10019874 0.1398066 -0.057569202 -0.2631637
-0.16994788 0.06010934 0.18611872 0.12646371 0.06995636 -0.024039514 -0.17269726 0.26287523
-0.19061498 0.25819606 -0.1581071 -0.34275165 0.6667732 -0.07329055 -0.31634796 0.22337228
-0.39128172 -0.18213761 0.18075152 -0.31508464 -0.25132278 -0.05209336 0.12720366 -0.16856031
-0.5169672 -0.12577099 0.25590047 -0.1328023 0.58437616 0.030197749 0.22278564 -0.18925403
0.17039186 -0.1428338 -0.12941341 0.1479217 0.007256737 -0.4336449 0.036700983 -0.05519571
-0.5477106 0.27426603 0.39639056 -0.2416298 0.11469728 0.39426008 0.46575823 -0.07134641
-0.31608137 -0.0142385345 0.28366277 0.40791312 -0.20275076 0.059689846 0.06394212 -0.27415645
0.4723611 0.3406476 -0.01845336 0.18294339 -0.081878826 -0.010729169 0.04083934 -0.06609925
00000000: fe62 cc3d 563c b5bd 158c 373e 4092 eebc
00000010: 29eb 99be 822f 473e 37c8 92bd b950 bebe
00000020: 8bd5 9f3e 5453 c03d 8fad f43e 66f7 e03d
00000030: dc88 02bd 5bd8 bf3e 1f51 0f3e 7c16 903e
00000040: a3d2 223e 9e39 173e 73d2 173e e72a 123c
00000050: 01f3 00be 54ad a1be 8e77 a03e cc7a 3ebe
00000060: c5d6 5ebe 7f2f 0ebe 279b 553e 7c05 19be
00000070: 3bc4 1ebe 8f5a ec3e 15d1 69be ee82 5c3e
00000080: 411c 67be d437 523e ffeb debc 77d5 143e
00000090: f671 b23d 196c 883b e489 463e 313f bbbe
000000a0: 87cb 343e ad52 42bd 0ebe bb3d 84ba abbe
000000b0: 4328 e4be 4c3a 093e f680 79be 678d 063e
000000c0: b428 b2be ebdd 46be 8593 d93e a5bd 753e
000000d0: 9af7 863e 787e 6d3d 13f4 2cbe be6e 65bd
000000e0: e173 5fbe 18f7 3f3e 960f aabe c81d e5bc
000000f0: 26a6 a3bd 9fb0 aebd ad28 193e bf88 2e3e
00000100: 8f05 483c cc9f b23e 1de4 3bbe ae56 0f3d
00000110: 3174 75bd d7f9 f43d 9f9d 7b3e 2c43 8abe
00000120: 8052 21be 5946 d8bb 4dbf 3bbd a158 87be
00000130: dea7 c5be 99b2 92be 741c d1bc 172b edbe
00000140: 0d5b 61be f7d4 fd3e addf f6bd 64b9 d2be
00000150: e2b9 61be c003 983e d68b 21bd d432 cf3e
00000160: d7d4 ad3e 8a35 77bd 162f 5abe 97df 9f3e
00000170: 1869 a23e 2efe 02bd e7a7 ab3d bbf0 36bc
00000180: d352 923d 9dfa b03e 64f9 773d c01e d53e
00000190: 656a 4fbe 6a2b 7abe 025c 23bd 175a ea3e
000001a0: 272a 4b3d 8812 ef3e ffda fb3d f678 17bd
000001b0: 48ef a53e ad8e e6be 87f4 85be ecd1 4abe
000001c0: befa a3bb d06a ddbe 3e00 1f3d 75ef 173e
000001d0: 7e5b 27be 49d9 4ebc 0672 bbbd 02f3 683e
000001e0: d886 8cbe 6198 7e3e e99e 15be 090a be3e
000001f0: 6b24 843e 4bcc 02bf dd4b 8abd b1ba 99be
00000200: 81fc c63e 65c0 cfbd b6c2 68be 8b2e 373e
00000210: 1eb5 003e 7fd0 4a3c 6ede 953e d44e a83b
00000220: 1aeb 4abe 2823 90be e860 413e adcb 8b3e
00000230: 9fc5 4b3e 5c0d 68be d9e7 c1bd 4f09 273e
00000240: dc4e 293d e6ba c23c 25c1 893e 7a63 963e
00000250: 7298 6dbe 6f5d bb3d 7427 fd3e 2ede 79be
00000260: 7f36 943e 1233 a1be 9d72 293e f9a7 653e
00000270: da8d 193e 895a a2be bc7e 39be 156c 173e
00000280: 0ae4 c93b 9296 5abe dcaf 033f d5ae 0a3f
00000290: 2839 40bc 6811 4f3d 038c 16be 795e 3ebe
000002a0: 5140 82be f84c 99be f1d6 df3d 560b e93d
000002b0: fdc7 333e fcc8 de3d e373 873e 1013 6e3e
000002c0: caf2 44be 5f06 00be 750e 683e faa6 a43e
000002d0: e4e9 1a3c c407 263d bba2 7d3e f77b 37bd
000002e0: f91a 3abe 3f9c 5cbe 51d0 7a3c 89d0 a83d
000002f0: ff34 cd3d 7629 0f3e afcd 6bbd 64bd 86be
00000300: d106 2ebe 3635 763d e895 3e3e b47f 013e
00000310: 4845 8f3d 84ee c4bc 8dd7 30be 9597 863e
00000320: 9330 43be 4632 843e d4e6 21be 257d afbe
00000330: a6b1 2a3f 5b19 96bd 5cf8 a1be b4bb 643e
00000340: 1456 c8be 4882 3abe ed16 393e c652 a1be
00000350: 61ad 80be d95f 55bd ad41 023e 139b 2cbe
00000360: f657 04bf 1cca 00be 6305 833e 53fd 07be
00000370: ad99 153f 4561 f73c eb21 643e cfcb 41be
00000380: 347b 2e3e 0643 12be f384 04be c978 173e
00000390: ecc9 ed3b b406 debe c553 163d e614 62bd
000003a0: c336 0cbf 996c 8c3e b4f3 ca3e cd6d 77be
000003b0: 68e6 ea3d 75dc c93e dd77 ee3e 111e 92bd
000003c0: 6bd5 a1be be48 69bc 3f3c 913e fdd9 d03e
000003d0: e59d 4fbe 577d 743d 16f4 823d 3c5e 8cbe
000003e0: 50d9 f13e 5d69 ae3e 802b 97bc 8355 3b3e
000003f0: 16b0 a7bd 65c9 2fbc 2747 273d 0b5f 87bd

model/conv1d_2/conv1d i1 [36, 1, 9, 36]
-5 -23 20 19 9 17 14 -35
80 -20 81 -21 -2 11 -28 38
57 56 13 42 15 -18 -82 2
-40 37 6 -34 -101 11 -107 3
-65 -23 -14 15 38 -74 -51 8
6 10 -11 -58 90 -27 41 -88
34 30 10 -20 17 -4 -11 -10
6 1 -63 -12 3 -12 -42 -19
-65 5 -28 -15 -65 -81 -108 27
-19 -1 -12 -35 23 -22 -57 7
57 -29 44 -65 -4 2 -61 10
33 59 -49 -5 -29 -59 -35 -17
25 -6 3 -79 -23 34 -79 13
-69 -90 -99 -1 25 -49 25 -52
7 16 -69 -61 74 -43 55 -69
36 -31 -24 -2 8 51 -32 -1
-10 -18 -27 -18 -10 43 -51 -23
-19 13 -37 -9 -70 -92 -34 -67
-20 7 13 -20 58 2 -36 -21
89 -31 72 8 8 -30 -33 -12
-9 63 -20 37 -34 -23 2 4
13 -26 -20 -47 -39 33 -64 -2
-54 -83 -95 -26 3 -54 31 6
48 -16 -46 -45 7 -43 15 -4
36 46 -30 29 5 69 27 34
-36 -29 -24 6 -7 8 -26 -97
-56 49 -44 -7 -121 -96 -64 8
-3 -10 40 11 89 44 -18 -59
61 -60 8 3 84 -48 -5 2
33 65 34 25 -57 -45 -93 36
-52 14 -54 -14 -14 30 -82 -23
-124 -85 -26 -58 -7 26 -41 -33
00000000: fbe9 1413 0911 0edd 50ec 51eb fe0b e426
00000010: 3938 0d2a 0fee ae02 d825 06de 9b0b 9503
00000020: bfe9 f20f 26b6 cd08 060a f5c6 5ae5 29a8
00000030: 221e 0aec 11fc f5f6 0601 c1f4 03f4 d6ed
00000040: bf05 e4f1 bfaf 941b edff f4dd 17ea c707
00000050: 39e3 2cbf fc02 c30a 213b cffb e3c5 ddef
00000060: 19fa 03b1 e922 b10d bba6 9dff 19cf 19cc
00000070: 0710 bbc3 4ad5 37bb 24e1 e8fe 0833 e0ff
00000080: f6ee e5ee f62b cde9 ed0d dbf7 baa4 debd
00000090: ec07 0dec 3a02 dceb 59e1 4808 08e2 dff4
000000a0: f73f ec25 dee9 0204 0de6 ecd1 d921 c0fe
000000b0: caad a1e6 03ca 1f06 30f0 d2d3 07d5 0ffc
000000c0: 242e e21d 0545 1b22 dce3 e806 f908 e69f
000000d0: c831 d4f9 87a0 c008 fdf6 280b 592c eec5
000000e0: 3dc4 0803 54d0 fb02 2141 2219 c7d3 a324
000000f0: cc0e caf2 f21e aee9 84ab e6c6 f91a d7df

model/conv1d_1/conv1d f4 [36]
0.0 0.0 0.0 0.0 0.0 0.0 0.0 0.0
0.0 0.0 0.0 0.0 0.0 0.0 0.0 0.0
0.0 0.0 0.0 0.0 0.0 0.0 0.0 0.0
0.0 0.0 0.0 0.0 0.0 0.0 0.0 0.0
0.0 0.0 0.0 0.0
00000000: 0000 0000 0000 0000 0000 0000 0000 0000
00000010: 0000 0000 0000 0000 0000 0000 0000 0000
00000020: 0000 0000 0000 0000 0000 0000 0000 0000
00000030: 0000 0000 0000 0000 0000 0000 0000 0000
00000040: 0000 0000 0000 0000 0000 0000 0000 0000
00000050: 0000 0000 0000 0000 0000 0000 0000 0000
00000060: 0000 0000 0000 0000 0000 0000 0000 0000
00000070: 0000 0000 0000 0000 0000 0000 0000 0000
00000080: 0000 0000 0000 0000 0000 0000 0000 0000

model/conv1d_1/conv1d1 i1 [36, 1, 9, 24]
18 -44 -57 -57 29 58 -36 63
-64 63 64 2 78 -47 -95 -68
0 -11 74 -32 -14 46 74 23
0 -55 10 -71 -6 14 18 -34
-3 -8 77 -62 88 -46 -8 30
-10 0 50 -9 -36 47 11 -17
-33 -3 -2 -8 61 94 33 43
-36 3 31 -11 88 -44 -51 26
-23 63 -45 -2 -55 -25 -9 6
-13 -1 -10 -22 -15 104 13 14
-54 35 82 -2 13 -94 -5 23
3 14 24 -8 -12 59 63 -33
-5 -3 -59 -49 -25 57 -41 13
-49 45 32 -56 1 -54 -18 -3
54 59 41 -75 -61 48 24 21
23 -5 -15 -49 -68 33 7 7
-38 32 55 -40 -4 -43 -127 -56
53 26 -7 -44 -38 37 15 -16
-6 -6 4 -73 52 16 15 11
-54 72 28 -49 27 -28 -45 13
63 -8 5 0 -28 3 -7 44
34 -37 -33 -21 -19 38 -32 -67
-86 74 37 -36 53 -20 -97 -16
18 57 54 -50 -43 -42 0 31
-29 -76 41 -64 7 14 -12 52
-65 30 60 -83 81 -80 -34 10
-2 50 51 7 11 64 20 19
-24 -23 2 -36 16 14 -40 31
52 -29 7 27 56 -58 56 -38
-20 11 63 0 -78 41 9 18
-77 -7 61 -34 98 25 -29 3
-24 67 -15 105 33 26 55 47
00000000: 12d4 c7c7 1d3a dc3f c03f 4002 4ed1 a1bc
00000010: 00f5 4ae0 f22e 4a17 00c9 0ab9 fa0e 12de
00000020: fdf8 4dc2 58d2 f81e f600 32f7 dc2f 0bef
00000030: dffd fef8 3d5e 212b dc03 1ff5 58d4 cd1a
00000040: e93f d3fe c9e7 f706 f3ff f6ea f168 0d0e
00000050: ca23 52fe 0da2 fb17 030e 18f8 f43b 3fdf
00000060: fbfd c5cf e739 d70d cf2d 20c8 01ca eefd
00000070: 363b 29b5 c330 1815 17fb f1cf bc21 0707
00000080: da20 37d8 fcd5 81c8 351a f9d4 da25 0ff0
00000090: fafa 04b7 3410 0f0b ca48 1ccf 1be4 d30d
000000a0: 3ff8 0500 e403 f92c 22db dfeb ed26 e0bd
000000b0: aa4a 25dc 35ec 9ff0 1239 36ce d5d6 001f
000000c0: e3b4 29c0 070e f434 bf1e 3cad 51b0 de0a
000000d0: fe32 3307 0b40 1413 e8e9 02dc 100e d81f
000000e0: 34e3 071b 38c6 38da ec0b 3f00 b229 0912
000000f0: b3f9 3dde 6219 e303 e843 f169 211a 372f

model/conv1d/conv1d f4 [24]
0.0 0.0 0.0 0.0 0.0 0.0 0.0 0.0
0.0 0.0 0.0 0.0 0.0 0.0 0.0 0.0
0.0 0.0 0.0 0.0 0.0 0.0 0.0 0.0
00000000: 0000 0000 0000 0000 0000 0000 0000 0000
00000010: 0000 0000 0000 0000 0000 0000 0000 0000
00000020: 0000 0000 0000 0000 0000 0000 0000 0000
00000030: 0000 0000 0000 0000 0000 0000 0000 0000
00000040: 0000 0000 0000 0000 0000 0000 0000 0000
00000050: 0000 0000 0000 0000 0000 0000 0000 0000

model/conv1d/conv1d1 i1 [24, 1, 3, 64]
24 -4 -41 14 27 88 50 0
56 24 28 19 -48 69 37 -33
30 39 -11 51 115 -80 -14 61
28 8 53 40 -6 5 -23 -73
13 -6 -18 16 18 9 91 6
36 52 -60 -22 -50 77 18 -32
-11 62 127 29 20 -81 14 -15
-11 -17 29 6 21 -25 48 -33
8 -5 -58 -15 17 45 52 -33
69 -4 41 21 -31 33 10 -29
-37 -13 -23 -2 71 -5 40 -44
-21 -11 -1 69 11 -4 -71 -50
-2 -32 -5 57 -24 -72 19 -14
65 64 -1 -6 -39 23 -2 16
4 118 108 28 -45 -80 -19 -50
52 26 10 -30 -3 -4 20 13
-16 -11 -46 -25 35 71 75 -20
43 2 17 48 -37 21 32 -1
19 13 -33 18 45 -27 61 -4
32 -19 -19 67 -36 -54 22 -33
82 10 1 26 -12 -35 68 -52
4 120 -16 -12 -45 71 44 -61
-14 68 110 37 2 -47 0 8
35 -34 -32 94 70 -69 23 28
3 26 -2 -14 24 -75 -42 -17
-55 -30 -10 -16 40 -30 -15 32
-33 -50 3 -48 -18 -12 -57 -25
-15 -15 -22 16 3 37 56 68
-37 17 6 12 -62 43 19 -34
-42 -16 29 0 -13 -61 -30 0
-33 -27 -81 -119 15 27 -46 -2
-60 -48 -22 30 -4 18 16 14
00000000: 18fc d70e 1b58 3200 3818 1c13 d045 25df
00000010: 1e27 f533 73b0 f23d 1c08 3528 fa05 e9b7
00000020: 0dfa ee10 1209 5b06 2434 c4ea ce4d 12e0
00000030: f53e 7f1d 14af 0ef1 f5ef 1d06 15e7 30df
00000040: 08fb c6f1 112d 34df 45fc 2915 e121 0ae3
00000050: dbf3 e9fe 47fb 28d4 ebf5 ff45 0bfc b9ce
00000060: fee0 fb39 e8b8 13f2 4140 fffa d917 fe10
00000070: 0476 6c1c d3b0 edce 341a 0ae2 fdfc 140d
00000080: f0f5 d2e7 2347 4bec 2b02 1130 db15 20ff
00000090: 130d df12 2de5 3dfc 20ed ed43 dcca 16df
000000a0: 520a 011a f4dd 44cc 0478 f0f4 d347 2cc3
000000b0: f244 6e25 02d1 0008 23de e05e 46bb 171c
000000c0: 031a fef2 18b5 d6ef c9e2 f6f0 28e2 f120
000000d0: dfce 03d0 eef4 c7e7 f1f1 ea10 0325 3844
000000e0: db11 060c c22b 13de d6f0 1d00 f3c3 e200
000000f0: dfe5 af89 0f1b d2fe c4d0 ea1e fc12 100e

model/dense_12/BiasAdd/ReadVariableOp/resource f4 [4]
0.13847049 -0.629018 0.03583585 0.060221765
00000000: 35cb 0d3e 5307 21bf 9dc8 123d 19ab 763d

model/tf.linalg.matmul/MatMul/b i1 [512, 257] scale=0.007874016 zero_point=0
1.0 1.0 1.0 1.0 1.0 1.0 1.0 1.0
1.0 1.0 1.0 1.0 1.0 1.0 1.0 1.0
1.0 1.0 1.0 1.0 1.0 1.0 1.0 1.0
1.0 1.0 1.0 1.0 1.0 1.0 1.0 1.0
1.0 1.0 1.0 1.0 1.0 1.0 1.0 1.0
1.0 1.0 1.0 1.0 1.0 1.0 1.0 1.0
1.0 1.0 1.0 1.0 1.0 1.0 1.0 1.0
1.0 1.0 1.0 1.0 1.0 1.0 1.0 1.0
1.0 1.0 1.0 1.0 1.0 1.0 1.0 1.0
1.0 1.0 1.0 1.0 1.0 1.0 1.0 1.0
1.0 1.0 1.0 1.0 1.0 1.0 1.0 1.0
1.0 1.0 1.0 1.0 1.0 1.0 1.0 1.0
1.0 1.0 1.0 1.0 1.0 1.0 1.0 1.0
1.0 1.0 1.0 1.0 1.0 1.0 1.0 1.0
1.0 1.0 1.0 1.0 1.0 1.0 1.0 1.0
1.0 1.0 1.0 1.0 1.0 1.0 1.0 1.0
1.0 1.0 1.0 1.0 1.0 1.0 1.0 1.0
1.0 1.0 1.0 1.0 1.0 1.0 1.0 1.0
1.0 1.0 1.0 1.0 1.0 1.0 1.0 1.0
1.0 1.0 1.0 1.0 1.0 1.0 1.0 1.0
1.0 1.0 1.0 1.0 1.0 1.0 1.0 1.0
1.0 1.0 1.0 1.0 1.0 1.0 1.0 1.0
1.0 1.0 1.0 1.0 1.0 1.0 1.0 1.0
1.0 1.0 1.0 1.0 1.0 1.0 1.0 1.0
1.0 1.0 1.0 1.0 1.0 1.0 1.0 1.0
1.0 1.0 1.0 1.0 1.0 1.0 1.0 1.0
1.0 1.0 1.0 1.0 1.0 1.0 1.0 1.0
1.0 1.0 1.0 1.0 1.0 1.0 1.0 1.0
1.0 1.0 1.0 1.0 1.0 1.0 1.0 1.0
1.0 1.0 1.0 1.0 1.0 1.0 1.0 1.0
1.0 1.0 1.0 1.0 1.0 1.0 1.0 1.0
1.0 1.0 1.0 1.0 1.0 1.0 1.0 1.0
00000000: 7f7f 7f7f 7f7f 7f7f 7f7f 7f7f 7f7f 7f7f
00000010: 7f7f 7f7f 7f7f 7f7f 7f7f 7f7f 7f7f 7f7f
00000020: 7f7f 7f7f 7f7f 7f7f 7f7f 7f7f 7f7f 7f7f
00000030: 7f7f 7f7f 7f7f 7f7f 7f7f 7f7f 7f7f 7f7f
00000040: 7f7f 7f7f 7f7f 7f7f 7f7f 7f7f 7f7f 7f7f
00000050: 7f7f 7f7f 7f7f 7f7f 7f7f 7f7f 7f7f 7f7f
00000060: 7f7f 7f7f 7f7f 7f7f 7f7f 7f7f 7f7f 7f7f
00000070: 7f7f 7f7f 7f7f 7f7f 7f7f 7f7f 7f7f 7f7f
00000080: 7f7f 7f7f 7f7f 7f7f 7f7f 7f7f 7f7f 7f7f
00000090: 7f7f 7f7f 7f7f 7f7f 7f7f 7f7f 7f7f 7f7f
000000a0: 7f7f 7f7f 7f7f 7f7f 7f7f 7f7f 7f7f 7f7f
000000b0: 7f7f 7f7f 7f7f 7f7f 7f7f 7f7f 7f7f 7f7f
000000c0: 7f7f 7f7f 7f7f 7f7f 7f7f 7f7f 7f7f 7f7f
000000d0: 7f7f 7f7f 7f7f 7f7f 7f7f 7f7f 7f7f 7f7f
000000e0: 7f7f 7f7f 7f7f 7f7f 7f7f 7f7f 7f7f 7f7f
000000f0: 7f7f 7f7f 7f7f 7f7f 7f7f 7f7f 7f7f 7f7f

model/tf.linalg.matmul_1/MatMul/b i1 [512, 257] scale=0.007874016 zero_point=0
0.0 0.0 0.0 0.0 0.0 0.0 0.0 0.0
0.0 0.0 0.0 0.0 0.0 0.0 0.0 0.0
0.0 0.0 0.0 0.0 0.0 0.0 0.0 0.0
0.0 0.0 0.0 0.0 0.0 0.0 0.0 0.0
0.0 0.0 0.0 0.0 0.0 0.0 0.0 0.0
0.0 0.0 0.0 0.0 0.0 0.0 0.0 0.0
0.0 0.0 0.0 0.0 0.0 0.0 0.0 0.0
0.0 0.0 0.0 0.0 0.0 0.0 0.0 0.0
0.0 0.0 0.0 0.0 0.0 0.0 0.0 0.0
0.0 0.0 0.0 0.0 0.0 0.0 0.0 0.0
0.0 0.0 0.0 0.0 0.0 0.0 0.0 0.0
0.0 0.0 0.0 0.0 0.0 0.0 0.0 0.0
0.0 0.0 0.0 0.0 0.0 0.0 0.0 0.0
0.0 0.0 0.0 0.0 0.0 0.0 0.0 0.0
0.0 0.0 0.0 0.0 0.0 0.0 0.0 0.0
0.0 0.0 0.0 0.0 0.0 0.0 0.0 0.0
0.0 0.0 0.0 0.0 0.0 0.0 0.0 0.0
0.0 0.0 0.0 0.0 0.0 0.0 0.0 0.0
0.0 0.0 0.0 0.0 0.0 0.0 0.0 0.0
0.0 0.0 0.0 0.0 0.0 0.0 0.0 0.0
0.0 0.0 0.0 0.0 0.0 0.0 0.0 0.0
0.0 0.0 0.0 0.0 0.0 0.0 0.0 0.0
0.0 0.0 0.0 0.0 0.0 0.0 0.0 0.0
0.0 0.0 0.0 0.0 0.0 0.0 0.0 0.0
0.0 0.0 0.0 0.0 0.0 0.0 0.0 0.0
0.0 0.0 0.0 0.0 0.0 0.0 0.0 0.0
0.0 0.0 0.0 0.0 0.0 0.0 0.0 0.0
0.0 0.0 0.0 0.0 0.0 0.0 0.0 0.0
0.0 0.0 0.0 0.0 0.0 0.0 0.0 0.0
0.0 0.0 0.0 0.0 0.0 0.0 0.0 0.0
0.0 0.0 0.0 0.0 0.0 0.0 0.0 0.0
0.0 0.0 0.0 0.0 0.0 0.0 0.0 0.0
00000000: 0000 0000 0000 0000 0000 0000 0000 0000
00000010: 0000 0000 0000 0000 0000 0000 0000 0000
00000020: 0000 0000 0000 0000 0000 0000 0000 0000
00000030: 0000 0000 0000 0000 0000 0000 0000 0000
00000040: 0000 0000 0000 0000 0000 0000 0000 0000
00000050: 0000 0000 0000 0000 0000 0000 0000 0000
00000060: 0000 0000 0000 0000 0000 0000 0000 0000
00000070: 0000 0000 0000 0000 0000 0000 0000 0000
00000080: 0000 0000 0000 0000 0000 0000 0000 0000
00000090: 0000 0000 0000 0000 0000 0000 0000 0000
000000a0: 0000 0000 0000 0000 0000 0000 0000 0000
000000b0: 0000 0000 0000 0000 0000 0000 0000 0000
000000c0: 0000 0000 0000 0000 0000 0000 0000 0000
000000d0: 0000 0000 0000 0000 0000 0000 0000 0000
000000e0: 0000 0000 0000 0000 0000 0000 0000 0000
000000f0: 0000 0000 0000 0000 0000 0000 0000 0000

model/tf.linalg.matmul_2/MatMul/b i1 [257, 64] scale=0.007844035 zero_point=0
0.0 0.0 0.0 0.0 0.0 0.0 0.0 0.0
0.0 0.0 0.0 0.0 0.0 0.0 0.0 0.0
0.0 0.0 0.0 0.0 0.0 0.0 0.0 0.0
0.0 0.0 0.0 0.0 0.0 0.0 0.0 0.0
0.0 0.0 0.0 0.0 0.0 0.0 0.0 0.0
0.0 0.0 0.0 0.0 0.0 0.0 0.0 0.0
0.0 0.0 0.0 0.0 0.0 0.0 0.0 0.0
0.0 0.0 0.0 0.0 0.0 0.0 0.0 0.0
0.0 0.0 0.0 0.0 0.0 0.0 0.0 0.0
0.0 0.0 0.0 0.0 0.0 0.0 0.0 0.0
0.0 0.0 0.0 0.0 0.0 0.0 0.0 0.0
0.0 0.0 0.0 0.0 0.0 0.0 0.0 0.0
0.0 0.0 0.0 0.0 0.0 0.0 0.0 0.0
0.0 0.0 0.0 0.0 0.0 0.0 0.0 0.0
0.0 0.0 0.0 0.0 0.0 0.0 0.0 0.0
0.0 0.0 0.0 0.0 0.0 0.0 0.0 0.0
0.0 0.0 0.0 0.0 0.0 0.0 0.0 0.0
0.0 0.0 0.0 0.0 0.0 0.0 0.0 0.0
0.0 0.0 0.0 0.0 0.0 0.0 0.0 0.0
0.0 0.0 0.0 0.0 0.0 0.0 0.0 0.0
0.0 0.0 0.0 0.0 0.0 0.0 0.0 0.0
0.0 0.0 0.0 0.0 0.0 0.0 0.0 0.0
0.0 0.0 0.0 0.0 0.0 0.0 0.0 0.0
0.0 0.0 0.0 0.0 0.0 0.0 0.0 0.0
0.0 0.0 0.0 0.0 0.0 0.0 0.0 0.0
0.0 0.0 0.0 0.0 0.0 0.0 0.0 0.0
0.0 0.0 0.0 0.0 0.0 0.0 0.0 0.0
0.0 0.0 0.0 0.0 0.0 0.0 0.0 0.0
0.0 0.0 0.0 0.0 0.0 0.0 0.0 0.0
0.0 0.0 0.0 0.0 0.0 0.0 0.0 0.0
0.0 0.0 0.0 0.0 0.0 0.0 0.0 0.0
0.0 0.0 0.0 0.0 0.0 0.0 0.0 0.0
00000000: 0000 0000 0000 0000 0000 0000 0000 0000
00000010: 0000 0000 0000 0000 0000 0000 0000 0000
00000020: 0000 0000 0000 0000 0000 0000 0000 0000
00000030: 0000 0000 0000 0000 0000 0000 0000 0000
00000040: 0000 0000 0000 0000 0000 0000 0000 0000
00000050: 0000 0000 0000 0000 0000 0000 0000 0000
00000060: 0000 0000 0000 0000 0000 0000 0000 0000
00000070: 0000 0000 0000 0000 0000 0000 0000 0000
00000080: 0000 0000 0000 0000 0000 0000 0000 0000
00000090: 0000 0000 0000 0000 0000 0000 0000 0000
000000a0: 0000 0000 0000 0000 0000 0000 0000 0000
000000b0: 0000 0000 0000 0000 0000 0000 0000 0000
000000c0: 0000 0000 0000 0000 0000 0000 0000 0000
000000d0: 0000 0000 0000 0000 0000 0000 0000 0000
000000e0: 0000 0000 0000 0000 0000 0000 0000 0000
000000f0: 0000 0000 0000 0000 0000 0000 0000 0000

model/tf.math.multiply/Mul/y f4 [1, 400]
0.0 6.168376e-05 0.0002467198 0.0005550625 0.0009866358 0.0015413332 0.0022190176 0.0030195222
0.0039426493 0.004988171 0.00615583 0.007445337 0.008856375 0.010388595 0.012041619 0.01381504
0.015708419 0.017721292 0.019853158 0.022103492 0.024471741 0.02695732 0.029559616 0.032277986
0.03511176 0.038060233 0.041122686 0.044298362 0.047586475 0.05098621 0.05449674 0.058117185
0.06184666 0.065684244 0.069628984 0.07367992 0.07783604 0.082096316 0.08645971 0.09092514
0.095491506 0.10015767 0.104922496 0.1097848 0.11474338 0.11979701 0.12494446 0.13018446
0.13551569 0.14093685 0.14644662 0.1520436 0.15772645 0.16349374 0.16934407 0.17527598
0.181288 0.18737867 0.19354647 0.19978988 0.20610738 0.21249737 0.21895832 0.22548859
0.2320866 0.23875071 0.24547929 0.25227067 0.25912318 0.26603508 0.27300474 0.28003043
0.28711036 0.29424283 0.30142605 0.30865827 0.31593773 0.32326257 0.33063105 0.3380413
0.3454915 0.35297984 0.36050445 0.36806348 0.37565506 0.38327733 0.3909284 0.39860636
0.40630934 0.41403544 0.42178276 0.4295494 0.43733338 0.44513285 0.45294586 0.46077046
0.46860474 0.47644678 0.48429462 0.49214634 0.5 0.5078537 0.5157054 0.52355325
0.53139526 0.5392296 0.5470542 0.55486715 0.5626666 0.5704506 0.5782172 0.58596456
0.59369063 0.60139364 0.6090716 0.6167227 0.62434494 0.63193655 0.63949555 0.64702016
0.6545085 0.6619587 0.669369 0.6767374 0.6840623 0.6913417 0.69857395 0.7057572
0.7128897 0.7199696 0.7269952 0.7339649 0.74087685 0.74772936 0.7545207 0.7612493
0.7679134 0.7745114 0.7810417 0.78750265 0.7938926 0.8002101 0.8064535 0.81262136
0.818712 0.824724 0.83065593 0.83650625 0.84227353 0.8479564 0.8535534 0.85906315
0.8644843 0.8698155 0.87505555 0.880203 0.88525665 0.8902152 0.8950775 0.8998423
0.9045085 0.90907484 0.9135403 0.91790366 0.92216396 0.9263201 0.930371 0.93431574
0.9381533 0.9418828 0.94550323 0.94901377 0.9524135 0.95570165 0.9588773 0.96193975
0.9648882 0.967722 0.9704404 0.97304267 0.97552824 0.9778965 0.9801468 0.9822787
0.98429155 0.98618495 0.9879584 0.9896114 0.99114364 0.99255466 0.99384415 0.9950118
0.99605733 0.9969805 0.997781 0.9984587 0.99901336 0.99944496 0.9997533 0.9999383
1.0 0.9999383 0.9997533 0.99944496 0.99901336 0.9984587 0.997781 0.9969805
0.99605733 0.9950118 0.99384415 0.99255466 0.99114364 0.9896114 0.9879584 0.98618495
0.98429155 0.9822787 0.9801468 0.9778965 0.97552824 0.97304267 0.9704404 0.967722
0.9648882 0.96193975 0.9588773 0.95570165 0.9524135 0.94901377 0.94550323 0.9418828
0.9381533 0.93431574 0.930371 0.9263201 0.92216396 0.91790366 0.9135403 0.90907484
0.9045085 0.8998423 0.8950775 0.8902152 0.88525665 0.880203 0.87505555 0.8698155
0.8644843 0.85906315 0.8535534 0.8479564 0.84227353 0.83650625 0.83065593 0.824724
00000000: 0000 0000 375c 8138 2c5a 8139 9d81 113a
00000010: 0152 813a 8f06 ca3a f06c 113b 2de3 453b
00000020: 5731 813b d073 a33b d8b6 c93b 03f8 f33b
00000030: 541a 113c ed34 2a3c 364a 453c 7a58 623c
00000040: f1ae 803c 3e2c 913c 17a3 a23c 6212 b53c
00000050: f678 c83c 99d5 dc3c 0227 f23c ec35 043d
00000060: 59d1 0f3d 0ce5 1b3d 4370 283d 3372 353d
00000070: 09ea 423d ebd6 503d f937 5f3d 490c 6e3d
00000080: ec52 7d3d 7685 863d a499 8e3d 7fe5 963d
00000090: 8068 9f3d 1d22 a83d ca11 b13d f636 ba3d
000000a0: 0d91 c33d 771f cd3d 9be1 d63d dad6 e03d
000000b0: 94fe ea3d 2358 f53d e2e2 ff3d 134f 053e
000000c0: a0c4 0a3e c051 103e 1af6 153e 51b1 1b3e
000000d0: 0b83 213e e76a 273e 8868 2d3e 8c7b 333e
000000e0: 90a3 393e 32e0 3f3e 0c31 463e b895 4c3e
000000f0: d00d 533e e998 593e 9c36 603e 7be6 663e
00000100: 1ca8 6d3e 117b 743e ec5e 7b3e 9f29 813e
00000110: cbab 843e c035 883e 47c7 8b3e 2660 8f3e
00000120: 2100 933e ffa6 963e 8454 9a3e 7508 9e3e
00000130: 97c2 a13e ac82 a53e 7948 a93e c013 ad3e
00000140: 43e4 b03e c6b9 b43e 0a94 b83e d172 bc3e
00000150: dc55 c03e ed3c c43e c427 c83e 2216 cc3e
00000160: c707 d03e 74fc d33e e9f3 d73e e6ed db3e
00000170: 29ea df3e 74e8 e33e 85e8 e73e 1bea eb3e
00000180: f6ec ef3e d5f0 f33e 77f5 f73e 9bfa fb3e
00000190: 0000 003f b302 023f 4505 043f 9607 063f
000001a0: 8509 083f f30a 0a3f be0b 0c3f c60b 0e3f
000001b0: eb0a 103f 0d09 123f 0b06 143f c601 163f
000001c0: 1cfc 173f eff4 193f 1eec 1b3f 8ae1 1d3f
000001d0: 12d5 1f3f 98c6 213f fbb5 233f 1da3 253f
000001e0: de8d 273f 2076 293f c45b 2b3f aa3e 2d3f
000001f0: b51e 2f3f c5fb 303f bed5 323f 81ac 343f
00000200: f07f 363f ed4f 383f 5c1c 3a3f 20e5 3b3f
00000210: 1baa 3d3f 316b 3f3f 4528 413f 3ce1 423f
00000220: f995 443f 6146 463f 59f2 473f c699 493f
00000230: 8c3c 4b3f 92da 4c3f bd73 4e3f f407 503f
00000240: 1c97 513f 1d21 533f dea5 543f 4625 563f
00000250: 3d9f 573f ac13 593f 7a82 5a3f 90eb 5b3f
00000260: d84e 5d3f 3bac 5e3f a403 603f fc54 613f
00000270: 2ea0 623f 25e5 633f cd23 653f 115c 663f
00000280: de8d 673f 21b9 683f c7dd 693f bcfb 6a3f
00000290: f012 6c3f 5023 6d3f cb2c 6e3f 512f 6f3f
000002a0: d12a 703f 3b1f 713f 800c 723f 91f2 723f
000002b0: 5fd1 733f dda8 743f fc78 753f af41 763f
000002c0: ea02 773f a1bc 773f c86e 783f 5319 793f
000002d0: 38bc 793f 6d57 7a3f e7ea 7a3f 9e76 7b3f
000002e0: 88fa 7b3f 9e76 7c3f d7ea 7c3f 2c57 7d3f
000002f0: 97bb 7d3f 1018 7e3f 926c 7e3f 18b9 7e3f
00000300: 9dfd 7e3f 1d3a 7f3f 936e 7f3f fd9a 7f3f
00000310: 57bf 7f3f a0db 7f3f d5ef 7f3f f5fb 7f3f
00000320: 0000 803f f5fb 7f3f d5ef 7f3f a0db 7f3f
00000330: 57bf 7f3f fd9a 7f3f 936e 7f3f 1d3a 7f3f
00000340: 9dfd 7e3f 18b9 7e3f 926c 7e3f 1018 7e3f
00000350: 97bb 7d3f 2c57 7d3f d7ea 7c3f 9e76 7c3f
00000360: 88fa 7b3f 9e76 7b3f e7ea 7a3f 6d57 7a3f
00000370: 38bc 793f 5319 793f c86e 783f a1bc 773f
00000380: ea02 773f af41 763f fc78 753f dda8 743f
00000390: 5fd1 733f 91f2 723f 800c 723f 3b1f 713f
000003a0: d12a 703f 512f 6f3f cb2c 6e3f 5023 6d3f
000003b0: f012 6c3f bcfb 6a3f c7dd 693f 21b9 683f
000003c0: de8d 673f 115c 663f cd23 653f 25e5 633f
000003d0: 2ea0 623f fc54 613f a403 603f 3bac 5e3f
000003e0: d84e 5d3f 90eb 5b3f 7a82 5a3f ac13 593f
000003f0: 3d9f 573f 4625 563f dea5 543f 1d21 533f

model/batch_normalization/batchnorm/mul f4 [36]
0.029940229 0.036396045 0.03718633 0.022523616 0.024825418 0.029485552 0.02009031 0.0311293
0.036884565 0.02778587 0.026009958 0.041291878 0.034029428 0.030152813 0.018367287 0.034022085
0.027284104 0.02586269 0.025749793 0.029310143 0.032451507 0.01637571 0.016737387 0.023892488
0.025948837 0.024678487 0.019131072 0.031849567 0.053476878 0.02446919 0.016562983 0.035562355
0.015451076 0.026334688 0.035817686 0.02469365
00000000: 3645 f53c 0514 153d b150 183d 7283 b83c
00000010: ad5e cb3c af8b f13c 6f94 a43c e002 ff3c
00000020: 4514 173d 319f e33c d612 d53c ac21 293d
00000030: 7162 0b3d 0803 f73c fe76 963c be5a 0b3d
00000040: ea82 df3c fedd d33c 3bf1 d23c d31b f03c
00000050: dfeb 043d 5a26 863c d81c 893c 2eba c33c
00000060: a892 d43c 8a2a ca3c c4b8 9c3c b174 023d
00000070: 920a 5b3d 9c73 c83c 18af 873c d5a9 113d
00000080: 8326 7d3c d8bb d73c 91b5 123d 564a ca3c

model/batch_normalization/batchnorm/sub f4 [36]
0.17587873 -0.10889983 0.61340284 0.07922198 -0.37202075 -0.35661674 -0.0582674 0.26112604
-0.3583442 0.30806422 -0.4569962 -0.51841074 -0.31562594 0.3553955 -0.6086382 0.6544408
-0.4019311 -0.4920203 0.41893017 -0.1976179 0.111810714 0.3232647 0.23753394 -0.44763237
0.28782785 -0.5670939 0.12110863 -0.123553574 -0.27658218 -0.37283504 0.11369917 0.29010373
0.066541746 -0.60506743 -0.72062355 0.06359347
00000000: 8e19 343e e006 dfbd f807 1d3f 223f a23d
00000010: 8179 bebe 7896 b6be cca9 6ebd 50b2 853e
00000020: e478 b7be 98ba 9d3e 68fb e9be 91b6 04bf
00000030: b999 a1be 66f6 b53e b7cf 1bbf 6f89 273f
00000040: eac9 cdbe 16ea fbbe 047e d63e 595c 4abe
00000050: 04fd e43d f382 a53e 193c 733e 1230 e5be
00000060: 2c5e 933e 112d 11bf cd07 f83d a809 fdbd
00000070: 2e9c 8dbe 3ce4 bebe 1cdb e83d 7a88 943e
00000080: 0a47 883d b3e5 1abf c97a 38bf 4b3d 823d

model/batch_normalization_1/batchnorm/mul f4 [36]
0.18504974 0.14237458 0.15576737 0.090018995 0.114231475 0.10319873 0.18801516 0.10472275
0.15103187 0.14156178 0.17584567 0.21901225 0.1655239 0.21348386 0.09091165 0.11337283
0.19319028 0.18721594 0.13977115 0.13874204 0.1866752 0.25149798 0.09467957 0.10632622
0.105242416 0.09219935 0.08771608 0.08589496 0.13007683 0.12561487 0.3444065 0.18829224
0.16178356 0.26930937 0.33645982 0.13765703
00000000: ae7d 3d3e a4ca 113e 7b81 1f3e e15b b83d
00000010: 31f2 e93d db59 d33d 0c87 403e e278 d63d
00000020: 19a8 1a3e 92f5 103e e310 343e bf44 603e
00000030: 197f 293e 839b 5a3e e32f ba3d 0430 e83d
00000040: acd3 453e 89b5 3f3e 2b20 0f3e 6512 0e3e
00000050: c927 3f3e 58c4 803e 5de7 c13d 90c1 d93d
00000060: 5689 d73d 03d3 bc3d 7da4 b33d b2e9 af3d
00000070: dc32 053e 2fa1 003e 0c56 b03e aecf 403e
00000080: 97aa 253e ebe2 893e 7644 ac3e f7f5 0c3e

model/batch_normalization_1/batchnorm/sub f4 [36]
0.2797545 0.018796287 -0.19876862 0.27837235 -0.15566269 0.06647348 0.35708097 0.051371403
0.09353663 -0.7092968 0.42384025 0.14649577 -0.23678112 -0.99055076 -0.14070685 -0.015655965
1.2332141 1.2990791 0.3414631 0.14510483 -0.38929847 1.3308505 0.01180703 0.66597533
0.16800827 0.3935011 -0.47583288 0.7490368 -0.4411019 0.03298664 -1.65157 0.46353167
-0.10362608 -1.889377 1.6980827 -0.14946827
00000000: fb3b 8f3e acfa 993c 008a 4bbe d286 8e3e
00000010: 0a66 1fbe 3f23 883d 51d3 b63e d26a 523d
00000020: 2290 bf3d 7a94 35bf 9701 d93e fd02 163e
00000030: c076 72be bc94 7dbf 7515 10be f040 80bc
00000040: f6d9 9d3f 3948 a63f 40d4 ae3e 5c96 143e
00000050: 2152 c7be 4f59 aa3f 4672 413c 5c7d 2a3f
00000060: 5c0a 2c3e fa78 c93e 5ea0 f3be e0c0 3f3f
00000070: 1cd8 e1be 001d 073d a566 d3bf 0654 ed3e
00000080: e939 d4bd 1bd7 f1bf c65a d93f 360e 19be
